20200513_cnn_week5/hw/xue/trained.model (torch_old, 18128 bytes, 14 tensors)

weight f4 [12, 4, 3]
0	0x3df0630c	0.11737642
1	0x3d96aacc	0.07356796
2	0x3d8c69f0	0.068561435
3	0xbe2499b3	-0.16074257
4	0x3dfab634	0.12241784
5	0xbe8bf2ae	-0.27333587
6	0xbe3fcade	-0.18729731
7	0x3d8b8ca4	0.068139344
8	0xbe6db7d9	-0.23214664
9	0x3d9ad964	0.07560995
10	0xb9edd000	-0.00045359135
11	0x3e7c6f6c	0.24651879
12	0xbe84f82a	-0.25970584
13	0xbda6dd22	-0.081476465
14	0xbe370896	-0.17874369
15	0xbdf08a48	-0.11745125
16	0xbd1b0bf8	-0.03785321
17	0xbe288592	-0.16457203
18	0xbe6cd388	-0.23127568
19	0xbd919b72	-0.07109727
20	0xbe544c68	-0.20732272
21	0xbe24e17e	-0.16101643
22	0xbe587331	-0.21137692
23	0x3c1834e0	0.00928995
24	0x3e797674	0.24361593
25	0xbbfc3fc0	-0.0076980293
26	0x3df409ac	0.11915907
27	0x3e52afa0	0.20574808
28	0x3e3cef8a	0.18450752
29	0x3e296cbc	0.16545385
30	0x3d57bf68	0.052672774
31	0xbe33776a	-0.17526022
32	0xbe744788	-0.23855412
33	0x3e823a32	0.25435024
34	0xbdeb6bc0	-0.11495161
35	0x3e6023d4	0.21888667
36	0xbd85d17a	-0.06534095
37	0xbdc729d6	-0.097247764
38	0xbd8d6d54	-0.06905618
39	0xbe31efea	-0.17376676
40	0xbe3f0be0	-0.18656874
41	0xbe4f2056	-0.20227179
42	0xbe85e1ba	-0.26148778
43	0xbd89fc7e	-0.06737612
44	0xbce34f60	-0.02774781
45	0xbe3c8c3c	-0.1841287
46	0xbe55d69c	-0.20882648
47	0x3e23c482	0.1599293
48	0xbe2d90b9	-0.16949739
49	0x3dffffcc	0.12499961
50	0xbda99152	-0.08279671
51	0xbd30807c	-0.043091282
52	0xbd8a1a3e	-0.067432866
53	0x3e04a744	0.12954432
54	0xbce69140	-0.028145432
55	0xbe41e830	-0.18936229
56	0xbe0c8e3c	-0.13726133
57	0xbe36856f	-0.17824338
58	0xbe59004f	-0.21191524
59	0x3dbe5ae4	0.0929468
60	0xbbfeffc0	-0.0077819526
61	0xbe53f0be	-0.20697305
62	0xbd8eeb08	-0.069784224
63	0x3e40f4d4	0.18843395
64	0x3e35a2aa	0.17737833
65	0xbe4596e4	-0.19295841
66	0x3e8096e2	0.25115114
67	0x3e7f5e04	0.24938208
68	0x3d5e34a0	0.054249406
69	0x3de85034	0.113434225
70	0x3e681908	0.22665799
71	0x3e4e164e	0.20125696
72	0xbe1c16f2	-0.15243128
73	0x3dc2fd14	0.09520927
74	0xbce16240	-0.02751267
75	0x3e426616	0.18984255
76	0xbe05f7f8	-0.13082874
77	0x3de210ac	0.11038336
78	0x3cb927c0	0.022601962
79	0xbe65cc69	-0.22441258
80	0x3df2992c	0.118456215
81	0xbe33cf94	-0.17559654
82	0xbe3e5d7a	-0.18590346
83	0x3e7e4390	0.2483046
84	0xbe2ca644	-0.168603
85	0x3e646070	0.22302413
86	0xbe1be1eb	-0.152229
87	0xbd524594	-0.051335886
88	0x3e1dbc34	0.15403825
89	0x3db17db8	0.08666557
90	0x3e7b7414	0.24555999
91	0x3e802f4e	0.2503609
92	0x3e520c22	0.20512441
93	0x3e89a8de	0.26886648
94	0xbe797ca2	-0.2436395
95	0x3dd16a68	0.102253735
96	0x3d93952c	0.07206187
97	0xbe12bfc7	-0.1433097
98	0xbe7c7dae	-0.24657318
99	0x3d429348	0.04750374
100	0xbd9a5148	-0.075350344
101	0x3e256140	0.16150379
102	0xbe0aa1e0	-0.13538313
103	0xbdbc4ed0	-0.0919472
104	0x3ba85300	0.0051368475
105	0xbe8ed29a	-0.2789505
106	0xbe7aea8e	-0.24503538
107	0xbd5fb808	-0.054618865
108	0x3e7f8dc4	0.24956423
109	0x3e3bde12	0.18346432
110	0x3e88b0c0	0.2669735
111	0x3e260fa8	0.1621691
112	0x3e7d0e6c	0.24712533
113	0x3e8d24bc	0.2756709
114	0xbc91f690	-0.017817765
115	0xbe237ba2	-0.15965131
116	0xbe4f4532	-0.2024124
117	0x3e83ae06	0.25718707
118	0xbe6da750	-0.23208356
119	0xbe19849f	-0.14991997
120	0xbe6a9686	-0.22908983
121	0xbe8cf643	-0.27531633
122	0x3e5ab040	0.21356297
123	0x3e650c58	0.2236799
124	0x3dd02f04	0.101652175
125	0x3e7e0c58	0.24809396
126	0xbd5d6798	-0.054053873
127	0xbb991880	-0.00467211
128	0xbe42a068	-0.19006503
129	0x3d8aac94	0.06771198
130	0x3d397bc8	0.045284063
131	0x3e03d9ee	0.12876102
132	0x3dcf0dd0	0.101100564
133	0x3e8f8190	0.28028536
134	0xbe836526	-0.25663108
135	0xbe66c90e	-0.22537634
136	0xbd966ad4	-0.073445946
137	0x3e90982e	0.28241104
138	0x3e0e7370	0.13911223
139	0xbe803ecd	-0.25047913
140	0x3e309434	0.17244035
141	0x3e5d1040	0.2158823
142	0xbe6fc41e	-0.23414657
143	0xbc96f730	-0.018428415

bias f4 [12]
0	0x3e62d3cc	0.22151107
1	0x3e5b85f4	0.21437818
2	0xbd556c6c	-0.052105352
3	0x3c3fe0a0	0.01171127
4	0xbe59ad04	-0.21257406
5	0x3e20615e	0.15662143
6	0x3e19ef98	0.15032804
7	0x3d0b8aa8	0.03406778
8	0x3dc96840	0.09834337
9	0xbe3bb45c	-0.1833052
10	0xbd72063c	-0.059087977
11	0x3e47c108	0.1950723

weight f4 [12]
0	0x3e4dbba4	0.2009111
1	0x3f436d63	0.76338786
2	0x3f36145f	0.71124834
3	0x3ec4dcf8	0.38449836
4	0x3f70f7ea	0.94128287
5	0x3e81db56	0.25362653
6	0x3ec74020	0.3891611
7	0x3efef102	0.4979325
8	0x3eecae1c	0.46226585
9	0x3f439c56	0.76410425
10	0x3f31a01f	0.6938495
11	0x3e3aa028	0.18225157

bias f4 [12]
0	0x00000000	0.0
1	0x00000000	0.0
2	0x00000000	0.0
3	0x00000000	0.0
4	0x00000000	0.0
5	0x00000000	0.0
6	0x00000000	0.0
7	0x00000000	0.0
8	0x00000000	0.0
9	0x00000000	0.0
10	0x00000000	0.0
11	0x00000000	0.0

running_mean f4 [12]
0	0x00000000	0.0
1	0x00000000	0.0
2	0x00000000	0.0
3	0x00000000	0.0
4	0x00000000	0.0
5	0x00000000	0.0
6	0x00000000	0.0
7	0x00000000	0.0
8	0x00000000	0.0
9	0x00000000	0.0
10	0x00000000	0.0
11	0x00000000	0.0

running_var f4 [12]
0	0x3f800000	1.0
1	0x3f800000	1.0
2	0x3f800000	1.0
3	0x3f800000	1.0
4	0x3f800000	1.0
5	0x3f800000	1.0
6	0x3f800000	1.0
7	0x3f800000	1.0
8	0x3f800000	1.0
9	0x3f800000	1.0
10	0x3f800000	1.0
11	0x3f800000	1.0

weight f4 [24, 12, 1]
0	0x3e363fae	0.1779773
1	0x3ce0e790	0.027454168
2	0xbd07c3b8	-0.033145636
3	0xbe3e4511	-0.18581034
4	0x3e02ded2	0.12780312
5	0x3d808ccc	0.06276855
6	0xbe0f4fa4	-0.13995224
7	0xbd7d8dcc	-0.061902806
8	0xbb8620c0	-0.0040932596
9	0x3e85bf9a	0.26122743
10	0xbe17d941	-0.1482897
11	0xbd24d8cc	-0.040245816
12	0x3e2b2070	0.16711593
13	0x3e3ce99a	0.18448487
14	0xbc67d040	-0.014148772
15	0xbe67a41b	-0.22621195
16	0x3e664630	0.22487712
17	0xbd81dcfc	-0.063409775
18	0x3dbeb8fc	0.09312627
19	0x3e1c70f0	0.15277457
20	0x3d8307c0	0.063979626
21	0x3e32eb6a	0.17472616
22	0xbe24283e	-0.16030976
23	0xbd903b10	-0.07042515
24	0xbdb9341c	-0.09043142
25	0xbe72f1b4	-0.23725015
26	0x3e181c46	0.14854535
27	0x3e8a1328	0.2696774
28	0xbe85ea21	-0.2615519
29	0xbc9d7ec0	-0.019225478
30	0x3e8a9590	0.27067232
31	0xbe360608	-0.17775738
32	0xbdbfb4f4	-0.09360686
33	0xbd320940	-0.043465853
34	0x3d856480	0.065133095
35	0xbe5bed6e	-0.21477291
36	0x3d76f5b0	0.0602929
37	0xbe6b0501	-0.22951128
38	0x3e1a4ff0	0.15069556
39	0xbe24c690	-0.1609137
40	0x3e0a5320	0.13508272
41	0xbe0de337	-0.13856207
42	0x3db06e68	0.08614808
43	0x3cfe56b0	0.031047195
44	0x3e7d51d4	0.24738246
45	0xbdea2f38	-0.114347875
46	0xbe8e7eb9	-0.27831057
47	0xbe5d4d6c	-0.21611565
48	0x3d9ab21c	0.07553503
49	0x3df0b974	0.117541224
50	0x3e7bbee4	0.24584538
51	0x3d3cf2f0	0.04613012
52	0x3c1b23a0	0.009468943
53	0xbc26dfa0	-0.010185152
54	0xbe8a85b0	-0.2705512
55	0xbe268533	-0.16261749
56	0xbd913472	-0.07090081
57	0x3d2b0f40	0.04176259
58	0x3de7fed8	0.113279045
59	0x3dc3f98c	0.09569082
60	0x3dae4f1c	0.08511183
61	0xbe594222	-0.21216634
62	0xbd15eb08	-0.036601096
63	0x3e47ce08	0.19512188
64	0xbe307e29	-0.17235626
65	0x3e4b316e	0.19843075
66	0xbcc5cb70	-0.024144858
67	0xbe72a1ee	-0.23694584
68	0x3e0c1338	0.13679206
69	0xbe1ca9c3	-0.15299134
70	0x3db4c2dc	0.08826229
71	0x3e37ed70	0.17961669
72	0x3df04460	0.117317915
73	0xbe7562fc	-0.23963541
74	0x3d70fe08	0.058836013
75	0x3d6428b0	0.055702865
76	0xbe7edb49	-0.24888338
77	0x3e3def9c	0.18548435
78	0xbe2e7e5e	-0.17040393
79	0x3c87ee80	0.016593218
80	0xbd11ba30	-0.035577953
81	0x3dec6044	0.11541799
82	0xbaf6d600	-0.0018832088
83	0x3d318868	0.043342978
84	0x3e262e1c	0.16228527
85	0x3dc6d850	0.09709227
86	0xbe66a035	-0.22522052
87	0x3d7fbdf8	0.062437028
88	0x3e8bae2c	0.2728132
89	0xbd84bbf4	-0.06481162
90	0xbe608f6c	-0.21929711
91	0xbd926738	-0.07148594
92	0xbdf29402	-0.118446365
93	0x3e8dff86	0.2773401
94	0xbe2519e9	-0.16123165
95	0xbe7b85e6	-0.24562797
96	0x3d5c58e0	0.053795695
97	0x3c6df880	0.014524579
98	0xbe717ec8	-0.2358352
99	0x3e3c182c	0.18368596
100	0xbe440dcc	-0.19145888
101	0xb8eb7000	-0.00011226535
102	0xbdec12c6	-0.11527018
103	0xbb8c8600	-0.004288435
104	0xbe65ed52	-0.22453812
105	0xbda9263a	-0.08259244
106	0x3e9108f8	0.28327155
107	0x3e20b19a	0.1569275
108	0xbe25d153	-0.16193132
109	0x3d2b6548	0.041844636
110	0xbe587c5e	-0.21141192
111	0x3e31b72e	0.17355034
112	0x3e40af64	0.18816906
113	0x3e0812aa	0.1328837
114	0x3e914c92	0.2837873
115	0x3db7f394	0.08982006
116	0x3d983d24	0.07433537
117	0xbe53704d	-0.20648308
118	0xbe794cb4	-0.24345666
119	0xbe9312fc	-0.2872542
120	0xba9b8c00	-0.0011867285
121	0x3e852f5a	0.2601269
122	0x3e5a5194	0.21320182
123	0xbe190e84	-0.14946944
124	0xbdac183a	-0.08403058
125	0xbe0cc0f4	-0.13745481
126	0xbe8ddaaf	-0.27705905
127	0xbda762c2	-0.081731334
128	0xbd868396	-0.06568067
129	0xbe4a3440	-0.19746494
130	0x3d8042e8	0.06262761
131	0x3d926494	0.0714809
132	0xbddf6e4e	-0.10909711
133	0x3e057bd8	0.13035524
134	0xbdccd216	-0.10001008
135	0xbe3fd42e	-0.18733284
136	0x3de08cac	0.10964331
137	0xbe8b8e14	-0.27256835
138	0x3e478d86	0.1948758
139	0xbe854bdf	-0.26034448
140	0x3d741718	0.059592336
141	0xbde04894	-0.10951343
142	0xbe6f58fe	-0.23373792
143	0xbc1ecd60	-0.00969252
144	0xbe89ac7e	-0.26889414
145	0xbe11e9dc	-0.14249367
146	0x3de3e608	0.11127859
147	0x3e00a6e8	0.1256367
148	0x3cf2f910	0.029659778
149	0x3da52040	0.08062792
150	0xbd10f350	-0.03538829
151	0xbd9b2e5a	-0.075772
152	0xbe8ecf70	-0.27892637
153	0x3dc230c0	0.094819546
154	0x3ddba8cc	0.10725555
155	0xbe15a26c	-0.1461274
156	0xbd16fb88	-0.036860973
157	0x3dd56938	0.104204595
158	0x3e0172ce	0.12641451
159	0x3e792074	0.24328786
160	0x3e46c7ec	0.19412202
161	0x3d9999b4	0.0750002
162	0xbe605421	-0.21907093
163	0x3cb5ed60	0.022207916
164	0xbd6652b8	-0.05623123
165	0xbe832899	-0.2561691
166	0x3e571e02	0.21007541
167	0xbe6edd14	-0.23326522
168	0xbd8e6dc4	-0.0695453
169	0xbd920376	-0.07129566
170	0x3d6ebe80	0.058287144
171	0x3e60b5b0	0.21944308
172	0x3d5e8620	0.05432713
173	0x3e8091d4	0.25111258
174	0x3d269ff8	0.0406799
175	0xbe45b75a	-0.19308224
176	0xbdc2412e	-0.09485088
177	0xbdd166c6	-0.102246806
178	0xbe56d9a4	-0.20981461
179	0x3e5d5cfc	0.21617502
180	0xbe1dd4ab	-0.15413158
181	0xbe2db6fb	-0.16964333
182	0x3dbc6938	0.091997564
183	0x3e5de244	0.21668345
184	0x3e8c48ce	0.27399296
185	0x3e91fe1c	0.28514183
186	0xbda8e910	-0.08247578
187	0xbe0e7a1a	-0.13913766
188	0x3c5c5d80	0.0134500265
189	0x3db6bc40	0.089226246
190	0x3e01476e	0.12624905
191	0xbca05f80	-0.019576788
192	0xbe5f5888	-0.21811116
193	0x3d99e280	0.075139046
194	0x3cc6b4a0	0.02425605
195	0xbc564520	-0.013078004
196	0x3da9e78c	0.08296117
197	0x3e8a4704	0.27007306
198	0xbdaed3e2	-0.08536507
199	0xbe4340b0	-0.19067645
200	0x3e099b86	0.13438234
201	0x3e15ea80	0.14640236
202	0xbe6a9a95	-0.22910531
203	0x3e2862a0	0.16443872
204	0xbe88a91a	-0.26691514
205	0x3e5ca984	0.2154904
206	0xbd345c1c	-0.044033155
207	0x3e2fa5ee	0.17153141
208	0xbe8b9d93	-0.27268657
209	0xbdb7b7d2	-0.08970608
210	0xbd594338	-0.05304262
211	0x3e888e4a	0.26671058
212	0x3e8fda28	0.28096128
213	0x3e81174c	0.25213087
214	0x3e8fb624	0.2806865
215	0xbe910479	-0.28323725
216	0x3dcc2870	0.0996865
217	0x3e5f9d1c	0.21837276
218	0xbde1c0d0	-0.11023104
219	0xbe5023ae	-0.2032611
220	0xbe85460a	-0.26029998
221	0xbd744b3c	-0.05964206
222	0x3e1a32f8	0.15058506
223	0x3d5237a8	0.05132261
224	0xbde91a9a	-0.11382027
225	0xbb1d1d00	-0.0023973584
226	0xbcbd9bf0	-0.023145646
227	0xbe0144c7	-0.12623893
228	0xbe894a70	-0.26814604
229	0x3e2581ee	0.16162845
230	0x3df28124	0.11841038
231	0x3e596b60	0.21232367
232	0xbe074aa1	-0.13212062
233	0x3e8898a4	0.26678956
234	0x3e107786	0.14108095
235	0xbe0f8c82	-0.14018443
236	0xbc651ce0	-0.013983935
237	0x3d90d430	0.070717216
238	0x3cda9920	0.026684344
239	0x3e936a00	0.2879181
240	0xbe1f03b6	-0.1552876
241	0xbc7d2040	-0.0154495835
242	0xbe05a3f7	-0.13050829
243	0x3e1dfbe4	0.1542812
244	0xbcfbceb0	-0.030738205
245	0x3e0695de	0.13143107
246	0xbe4beca4	-0.1991449
247	0xbe29cdee	-0.16582462
248	0x3e14b1b2	0.1452091
249	0xbd0a4998	-0.03376159
250	0x3e6851b4	0.22687417
251	0xbd0ff628	-0.035146862
252	0xbe8921a1	-0.2678347
253	0xbdeeb342	-0.116552845
254	0x3e529bd6	0.20567259
255	0x3e176da4	0.14787918

bias f4 [24]
0	0x3e89e164	0.26929772
1	0x3e8e08ae	0.27740997
2	0xbdea1fa6	-0.11431818
3	0x3e304cca	0.17216793
4	0x3da60c40	0.08107805
5	0xbe426dea	-0.18987241
6	0xbe498010	-0.19677758
7	0xbe062152	-0.13098648
8	0xbe700841	-0.23440649
9	0xbdcf4a16	-0.10121553
10	0xbe36a4b6	-0.1783627
11	0x3e88b63a	0.26701528
12	0x3de932e0	0.11386657
13	0xbe335761	-0.17513801
14	0xbe0fd7b2	-0.14047125
15	0xbc0d77a0	-0.008634478
16	0x3d8c7a0c	0.06859216
17	0x3e02a50e	0.12758276
18	0x3e8e2400	0.2776184
19	0x3d104f50	0.03523189
20	0x3e72bc50	0.23704648
21	0x3dfc4280	0.12317371
22	0x3e7e1160	0.24811316
23	0x3e730ca0	0.23735285

weight f4 [24]
0	0x3e9c9db6	0.30589074
1	0x3e203090	0.15643525
2	0x3f35ef91	0.71068674
3	0x3f73fdf8	0.953094
4	0x3eb12a30	0.346025
5	0x3df50ee0	0.11965728
6	0x3f01e633	0.5074188
7	0x3f454575	0.7705911
8	0x3e99f486	0.3006937
9	0x3f625858	0.8841605
10	0x3eb0682c	0.34454477
11	0x3f03a559	0.51424176
12	0x3f0793c5	0.52959853
13	0x3e94e668	0.29082036
14	0x3f5a1eac	0.8520305
15	0x3edb6348	0.42849183
16	0x3f7d5be5	0.98968345
17	0x3f346e7f	0.70481104
18	0x3f5822db	0.84428185
19	0x3ed2da20	0.4118204
20	0x3f2bd094	0.6711514
21	0x3f7e6ffc	0.99389625
22	0x3d8f6790	0.07002175
23	0x3f54f6cb	0.83189076

bias f4 [24]
0	0x00000000	0.0
1	0x00000000	0.0
2	0x00000000	0.0
3	0x00000000	0.0
4	0x00000000	0.0
5	0x00000000	0.0
6	0x00000000	0.0
7	0x00000000	0.0
8	0x00000000	0.0
9	0x00000000	0.0
10	0x00000000	0.0
11	0x00000000	0.0
12	0x00000000	0.0
13	0x00000000	0.0
14	0x00000000	0.0
15	0x00000000	0.0
16	0x00000000	0.0
17	0x00000000	0.0
18	0x00000000	0.0
19	0x00000000	0.0
20	0x00000000	0.0
21	0x00000000	0.0
22	0x00000000	0.0
23	0x00000000	0.0

running_mean f4 [24]
0	0x00000000	0.0
1	0x00000000	0.0
2	0x00000000	0.0
3	0x00000000	0.0
4	0x00000000	0.0
5	0x00000000	0.0
6	0x00000000	0.0
7	0x00000000	0.0
8	0x00000000	0.0
9	0x00000000	0.0
10	0x00000000	0.0
11	0x00000000	0.0
12	0x00000000	0.0
13	0x00000000	0.0
14	0x00000000	0.0
15	0x00000000	0.0
16	0x00000000	0.0
17	0x00000000	0.0
18	0x00000000	0.0
19	0x00000000	0.0
20	0x00000000	0.0
21	0x00000000	0.0
22	0x00000000	0.0
23	0x00000000	0.0

running_var f4 [24]
0	0x3f800000	1.0
1	0x3f800000	1.0
2	0x3f800000	1.0
3	0x3f800000	1.0
4	0x3f800000	1.0
5	0x3f800000	1.0
6	0x3f800000	1.0
7	0x3f800000	1.0
8	0x3f800000	1.0
9	0x3f800000	1.0
10	0x3f800000	1.0
11	0x3f800000	1.0
12	0x3f800000	1.0
13	0x3f800000	1.0
14	0x3f800000	1.0
15	0x3f800000	1.0
16	0x3f800000	1.0
17	0x3f800000	1.0
18	0x3f800000	1.0
19	0x3f800000	1.0
20	0x3f800000	1.0
21	0x3f800000	1.0
22	0x3f800000	1.0
23	0x3f800000	1.0

weight f4 [21, 24, 1]
0	0xbd74eddc	-0.059797153
1	0x3d4798f0	0.048729837
2	0xbcb67e18	-0.022276923
3	0xbe503882	-0.20334056
4	0xbc6668f0	-0.014063105
5	0xbc2f2870	-0.010690793
6	0x3dd34d1c	0.10317442
7	0x3d1a91c4	0.03773667
8	0x3e05f692	0.1308234
9	0xbdc34ffb	-0.095367394
10	0x3db1db88	0.086844504
11	0x3d8328c8	0.06404263
12	0xbdfd402a	-0.12365754
13	0x3e2d189e	0.16903922
14	0xbdd24f5a	-0.10269041
15	0x3e29b632	0.16573408
16	0x3daa80a4	0.083253175
17	0x3df583f4	0.11988059
18	0xbde19c96	-0.110161945
19	0xbe3eacbf	-0.18620585
20	0xbdacd659	-0.08439321
21	0x3d8b114c	0.067904085
22	0xbe3e716a	-0.18597952
23	0xbdfecbdf	-0.12441229
24	0xbced8af8	-0.02899693
25	0xbc01caa0	-0.007921845
26	0xbe4b6706	-0.19863519
27	0x3dc45b48	0.09587723
28	0xbe0579de	-0.1303477
29	0xbc41f0a0	-0.011837155
30	0x3e25630c	0.16151065
31	0xbcc82dd0	-0.024435908
32	0x3dd34a10	0.10316861
33	0x3d4a9988	0.049462825
34	0xbe0bf160	-0.13666296
35	0x3d1771b0	0.036973655
36	0x3df8590c	0.12126359
37	0x3e3a7ad8	0.18210924
38	0xbddd9a18	-0.10820407
39	0x3d3ce6d0	0.046118557
40	0x3e1624b4	0.14662439
41	0xbce628a8	-0.028095558
42	0x3dc192b8	0.094518125
43	0x3d5a1158	0.053239197
44	0x3e17ce3a	0.14824763
45	0x3db81ed8	0.08990258
46	0xbd2c85b4	-0.042119697
47	0xbd15a674	-0.036535695
48	0x3e440938	0.19144142
49	0x3e18710a	0.14886871
50	0xbe10647a	-0.14100829
51	0x3d5b2a20	0.05350697
52	0xbe05671e	-0.13027617
53	0xbe35dcd2	-0.17760018
54	0xbe354eda	-0.1770586
55	0x3e4d1260	0.20026541
56	0x3e2549bc	0.16141409
57	0xbde169ab	-0.11006483
58	0xbcd25d28	-0.025679186
59	0x3e1b39a6	0.1515871
60	0x3da63c48	0.081169665
61	0x3e26ef66	0.16302261
62	0x3d20f328	0.039294392
63	0x3e4dc04e	0.2009289
64	0x3d358a24	0.044321194
65	0xbcc473d0	-0.023981005
66	0x3dbff788	0.09373385
67	0xbe27d6be	-0.16390511
68	0x3da2b630	0.07944906
69	0x3c670980	0.014101386
70	0x3e1290d6	0.14313063
71	0x3e0d31da	0.13788548
72	0x3de9956c	0.11405453
73	0x3e5064d8	0.20350969
74	0x3e03f7a0	0.1288743
75	0xbe08c610	-0.13356805
76	0xbdd14e49	-0.1022001
77	0x3d277d6c	0.040891096
78	0xbe34e772	-0.17666414
79	0x3dd9c7d0	0.10633814
80	0xbd3627b4	-0.044471458
81	0xbe060fbe	-0.13091943
82	0x3d043790	0.03227955
83	0xbe1270b8	-0.14300811
84	0x3d428978	0.04749438
85	0xbdef6136	-0.116884634
86	0x3e3e4a1a	0.18582955
87	0x3d55bcb0	0.0521819
88	0xbd988db8	-0.07448906
89	0x3e48677a	0.19570723
90	0xbd531b7c	-0.051539883
91	0x3d9b8790	0.07594216
92	0x3dd184cc	0.10230407
93	0xbe362894	-0.17788917
94	0x3e23706a	0.15960851
95	0xbae1b280	-0.0017219335
96	0x3e206f5a	0.15667477
97	0xbdd87daf	-0.10570847
98	0x3e0b0ce2	0.13579133
99	0xbd5e66d0	-0.05429727
100	0x3c804cc0	0.015661597
101	0x3e23254e	0.159322
102	0xbe069506	-0.13142785
103	0x3e313d14	0.17308456
104	0x3e3a1636	0.18172535
105	0x3e14987e	0.14511296
106	0xbe29d0aa	-0.16583505
107	0x3c841738	0.016124353
108	0xbd9edfe4	-0.077575475
109	0xbce52d90	-0.027975827
110	0x3c181270	0.00928174
111	0xbe36aa0d	-0.17838307
112	0x3df18d98	0.11794585
113	0xbd9988c2	-0.074967876
114	0x3e168eba	0.14702883
115	0xbe480d2e	-0.19536278
116	0xbddd690e	-0.10811053
117	0xbe0bd2fc	-0.13654703
118	0xbdde7a19	-0.10863132
119	0xbd7b6b50	-0.061381638
120	0xbbc21840	-0.005923301
121	0xbd35229c	-0.04422246
122	0x3de547dc	0.11195347
123	0xbcfa5f30	-0.030562967
124	0x3ca08590	0.019594938
125	0x3dd4750c	0.103738874
126	0x3e4551f8	0.1926955
127	0x3aa35900	0.0012462437
128	0x3e1b228c	0.15149897
129	0xbe3f06ba	-0.1865491
130	0x3c8dbe60	0.017302692
131	0xbe2424b3	-0.16029625
132	0x39dea200	0.0004246384
133	0xbcf55e78	-0.029952273
134	0xbdebcc80	-0.11513615
135	0x3d43d480	0.047810078
136	0xbbcc6f20	-0.006238833
137	0x3d9c413c	0.0762963
138	0x3c874430	0.016512007
139	0x3d8fd678	0.070233285
140	0x3c9645c0	0.018343806
141	0x3e1c1cc8	0.15245354
142	0x3da73d98	0.08166045
143	0x3dba3c4c	0.09093532
144	0xbdca8cf8	-0.09890169
145	0x3e26e56a	0.16298452
146	0x3e3ba7b6	0.18325695
147	0x3dd07c04	0.10179904
148	0xbd9406a0	-0.07227826
149	0xbe0216a4	-0.12703949
150	0x3e328e28	0.17437041
151	0xbdaf42f6	-0.08557694
152	0x3da70688	0.081555426
153	0xbc71fb10	-0.014769331
154	0xbd2718f8	-0.040795296
155	0xbc983ff0	-0.018585175
156	0xbe13ad31	-0.14421536
157	0xbdce2292	-0.100651875
158	0xbe243880	-0.16037178
159	0xbe3fc4c0	-0.18727398
160	0x3ccb32e8	0.024804547
161	0xbe44f093	-0.19232397
162	0xbe023d16	-0.12718615
163	0xbdf03746	-0.117292926
164	0xbdcf8fb9	-0.10134835
165	0xbdcbc1ab	-0.099490486
166	0xbc1c2e30	-0.009532496
167	0x3e383ef0	0.17992759
168	0x3dc7d078	0.09756559
169	0x3e1216a6	0.14266452
170	0xbdd27e54	-0.102780014
171	0xbdfbe67b	-0.1229982
172	0x3e0e293c	0.13882917
173	0xbc94df90	-0.01817301
174	0xbe1d5e92	-0.15368107
175	0x3d9b72c4	0.07590249
176	0x3dc22f8c	0.09481725
177	0xbe224c1e	-0.15849349
178	0x3e44e58c	0.1922819
179	0xbe1a14ce	-0.15046999
180	0x3e0bf1be	0.13666436
181	0xbd93162c	-0.07181963
182	0xbe1c4dd8	-0.1526407
183	0x3e041e6a	0.12902227
184	0x3bcf82c0	0.0063327253
185	0x3e39a07a	0.18127623
186	0xbe433986	-0.19064912
187	0x3da04b80	0.078269005
188	0x3da2e114	0.079530865
189	0x3e158af2	0.14603785
190	0xbbf02be0	-0.007329449
191	0x3e0009ea	0.12503782
192	0xbe021fba	-0.12707415
193	0xbe4cf78e	-0.2001631
194	0xbe112f50	-0.14178205
195	0xbe148676	-0.14504418
196	0x3e3822cc	0.17982024
197	0x3d990b4c	0.07472858
198	0x3e12a732	0.14321592
199	0xbdcf7b7d	-0.101309754
200	0xbd967d7a	-0.073481515
201	0x3cdddb80	0.027082205
202	0x3e096814	0.13418609
203	0xbded96dc	-0.1160104
204	0x3e11b57e	0.1422939
205	0xbe464e0a	-0.19365707
206	0x3e4d5536	0.20052037
207	0xbe47eb33	-0.19523315
208	0xbe45e06a	-0.19323888
209	0x3e3f8fe4	0.18707234
210	0xbd60b248	-0.054857522
211	0x3e1c0c50	0.15239072
212	0x3c232300	0.009957075
213	0x3c9540c8	0.018219367
214	0x3e4d37e0	0.20040846
215	0x3c28be60	0.010299295
216	0x3e487b08	0.19578183
217	0xbd97a220	-0.0740397
218	0xbd42c188	-0.047547847
219	0x3e45d8ba	0.19320956
220	0x3e025778	0.12728679
221	0x3d3bd748	0.045859605
222	0x3cb15ce0	0.021650732
223	0xbda7e8a8	-0.081986725
224	0xbbfe8720	-0.007767573
225	0x3e0c9a1e	0.13730666
226	0x3d792d50	0.06083423
227	0xbd65d174	-0.056107953
228	0x3e0e9bee	0.1392667
229	0xbe2f0020	-0.17089891
230	0xbe4cd031	-0.20001294
231	0xbd40b098	-0.047043413
232	0xbe24005f	-0.16015767
233	0x3de42e40	0.11141634
234	0xbe1b961c	-0.15193981
235	0x3df7f090	0.121064305
236	0xbe06f530	-0.13179469
237	0xbde2b481	-0.11069585
238	0x3e2b54fc	0.16731638
239	0xbda3108d	-0.07962141
240	0xbd4999e8	-0.049219042
241	0xbdd5976a	-0.104292706
242	0x3db7158c	0.089396566
243	0x3e021c3e	0.12706086
244	0x3e4e8664	0.20168453
245	0xbd941aae	-0.07231651
246	0x3e324272	0.1740816
247	0xb8ce1000	-9.825826e-05
248	0x3deddd94	0.11614528
249	0xbdcd6fbc	-0.10031077
250	0xbe4a37dd	-0.19747873
251	0x3dec48d4	0.11537328
252	0x3e0649dc	0.13114113
253	0x3e3985fa	0.18117514
254	0xbe50c43d	-0.20387359
255	0x3db7fe54	0.08984056

bias f4 [21]
0	0xbdbce14d	-0.0922266
1	0x3decd768	0.11564523
2	0xbe0da652	-0.13832977
3	0xbe04021a	-0.12891427
4	0xbd992ac2	-0.074788585
5	0x3b7b8300	0.0038377643
6	0xbe3fd8be	-0.18735024
7	0xbe11778e	-0.14205763
8	0x3ddfb80c	0.10923776
9	0xbe09eb35	-0.1346863
10	0xbdb14833	-0.08656349
11	0xbe0cdb70	-0.13755584
12	0x3df0ea78	0.11763471
13	0x3de0cf6c	0.109770626
14	0x3d72e0f8	0.05929658
15	0xbdf66c81	-0.12032414
16	0xbdff53f2	-0.12467183
17	0xbe1459e6	-0.14487419
18	0xbd8d64f0	-0.06904018
19	0x3d0a1930	0.033715427
20	0xbde202c9	-0.110356875
